…
X_train of shape: (3090, 49152)
X_val of shape: (546, 49152)
X_test of shape: (910, 49152)
X_inference of shape: (100, 49152)
X_train of shape: (3090, 49152)
X_val of shape: (546, 49152)
X_test of shape: (910, 49152)
X_inference of shape: (100, 49152)
X_train of shape: (3090, 128, 128, 3)
X_val of shape: (546, 128, 128, 3)
X_test of shape: (910, 128, 128, 3)
X_inference of shape: (100, 128, 128, 3)
_________________________________________________________________
Layer (type)                 Output Shape              Param #
=================================================================
input_1 (InputLayer)         (None, 128, 128, 3)       0
_________________________________________________________________
block1_conv1 (Conv2D)        (None, 128, 128, 64)      1792
_________________________________________________________________
block1_conv2 (Conv2D)        (None, 128, 128, 64)      36928
_________________________________________________________________
block1_pool (MaxPooling2D)   (None, 64, 64, 64)        0
_________________________________________________________________
block2_conv1 (Conv2D)        (None, 64, 64, 128)       73856
_________________________________________________________________
block2_conv2 (Conv2D)        (None, 64, 64, 128)       147584
_________________________________________________________________
block2_pool (MaxPooling2D)   (None, 32, 32, 128)       0
_________________________________________________________________
block3_conv1 (Conv2D)        (None, 32, 32, 256)       295168
_________________________________________________________________
block3_conv2 (Conv2D)        (None, 32, 32, 256)       590080
_________________________________________________________________
block3_conv3 (Conv2D)        (None, 32, 32, 256)       590080
_________________________________________________________________
block3_pool (MaxPooling2D)   (None, 16, 16, 256)       0
_________________________________________________________________
block4_conv1 (Conv2D)        (None, 16, 16, 512)       1180160
_________________________________________________________________
block4_conv2 (Conv2D)        (None, 16, 16, 512)       2359808
_________________________________________________________________
block4_conv3 (Conv2D)        (None, 16, 16, 512)       2359808
_________________________________________________________________
block4_pool (MaxPooling2D)   (None, 8, 8, 512)         0
_________________________________________________________________
block5_conv1 (Conv2D)        (None, 8, 8, 512)         2359808
_________________________________________________________________
block5_conv2 (Conv2D)        (None, 8, 8, 512)         2359808
_________________________________________________________________
block5_conv3 (Conv2D)        (None, 8, 8, 512)         2359808
_________________________________________________________________
block5_pool (MaxPooling2D)   (None, 4, 4, 512)         0
=================================================================
Total params: 14,714,688
Trainable params: 14,714,688
Non-trainable params: 0
_________________________________________________________________
extract features debug
[array([[[0.        , 0.        , 0.        , ..., 0.        ,
         0.8329549 , 0.        ],
        [0.        , 0.        , 0.        , ..., 0.        ,
         0.        , 0.        ],
…
