_________________________________________________________________
Layer (type)                 Output Shape              Param #   
=================================================================
conv2d_1 (Conv2D)            (None, 128, 128, 64)      1792      
_________________________________________________________________
batch_normalization_1 (Batch (None, 128, 128, 64)      256       
_________________________________________________________________
max_pooling2d_1 (MaxPooling2 (None, 64, 64, 64)        0         
_________________________________________________________________
conv2d_2 (Conv2D)            (None, 64, 64, 32)        18464     
_________________________________________________________________
batch_normalization_2 (Batch (None, 64, 64, 32)        128       
_________________________________________________________________
max_pooling2d_2 (MaxPooling2 (None, 32, 32, 32)        0         
_________________________________________________________________
conv2d_3 (Conv2D)            (None, 32, 32, 16)        4624      
_________________________________________________________________
batch_normalization_3 (Batch (None, 32, 32, 16)        64        
_________________________________________________________________
max_pooling2d_3 (MaxPooling2 (None, 16, 16, 16)        0         
_________________________________________________________________
flatten_1 (Flatten)          (None, 4096)              0         
_________________________________________________________________
dense_1 (Dense)              (None, 10)                40970     
=================================================================
Total params: 66,298
Trainable params: 66,074
Non-trainable params: 224
_________________________________________________________________
_________________________________________________________________
Layer (type)                 Output Shape              Param #   
=================================================================
conv2d_4 (Conv2D)            (None, 128, 128, 64)      1792      
_________________________________________________________________
batch_normalization_4 (Batch (None, 128, 128, 64)      256       
_________________________________________________________________
max_pooling2d_4 (MaxPooling2 (None, 64, 64, 64)        0         
_________________________________________________________________
conv2d_5 (Conv2D)            (None, 64, 64, 32)        18464     
_________________________________________________________________
batch_normalization_5 (Batch (None, 64, 64, 32)        128       
_________________________________________________________________
max_pooling2d_5 (MaxPooling2 (None, 32, 32, 32)        0         
_________________________________________________________________
conv2d_6 (Conv2D)            (None, 32, 32, 16)        4624      
_________________________________________________________________
batch_normalization_6 (Batch (None, 32, 32, 16)        64        
_________________________________________________________________
max_pooling2d_6 (MaxPooling2 (None, 16, 16, 16)        0         
_________________________________________________________________
flatten_2 (Flatten)          (None, 4096)              0         
_________________________________________________________________
dense_2 (Dense)              (None, 10)                40970     
=================================================================
Total params: 66,298
Trainable params: 66,074
Non-trainable params: 224
_________________________________________________________________
_________________________________________________________________
Layer (type)                 Output Shape              Param #   
=================================================================
conv2d_7 (Conv2D)            (None, 128, 128, 64)      1792      
_________________________________________________________________
batch_normalization_7 (Batch (None, 128, 128, 64)      256       
_________________________________________________________________
max_pooling2d_7 (MaxPooling2 (None, 64, 64, 64)        0         
_________________________________________________________________
conv2d_8 (Conv2D)            (None, 64, 64, 32)        18464     
_________________________________________________________________
batch_normalization_8 (Batch (None, 64, 64, 32)        128       
_________________________________________________________________
max_pooling2d_8 (MaxPooling2 (None, 32, 32, 32)        0         
_________________________________________________________________
conv2d_9 (Conv2D)            (None, 32, 32, 16)        4624      
_________________________________________________________________
batch_normalization_9 (Batch (None, 32, 32, 16)        64        
_________________________________________________________________
max_pooling2d_9 (MaxPooling2 (None, 16, 16, 16)        0         
_________________________________________________________________
flatten_3 (Flatten)          (None, 4096)              0         
_________________________________________________________________
dense_3 (Dense)              (None, 10)                40970     
=================================================================
Total params: 66,298
Trainable params: 66,074
Non-trainable params: 224
_________________________________________________________________
_________________________________________________________________
Layer (type)                 Output Shape              Param #   
=================================================================
conv2d_10 (Conv2D)           (None, 128, 128, 64)      1792      
_________________________________________________________________
batch_normalization_10 (Batc (None, 128, 128, 64)      256       
_________________________________________________________________
max_pooling2d_10 (MaxPooling (None, 64, 64, 64)        0         
_________________________________________________________________
conv2d_11 (Conv2D)           (None, 64, 64, 32)        18464     
_________________________________________________________________
batch_normalization_11 (Batc (None, 64, 64, 32)        128       
_________________________________________________________________
max_pooling2d_11 (MaxPooling (None, 32, 32, 32)        0         
_________________________________________________________________
conv2d_12 (Conv2D)           (None, 32, 32, 16)        4624      
_________________________________________________________________
batch_normalization_12 (Batc (None, 32, 32, 16)        64        
_________________________________________________________________
max_pooling2d_12 (MaxPooling (None, 16, 16, 16)        0         
_________________________________________________________________
flatten_4 (Flatten)          (None, 4096)              0         
_________________________________________________________________
dense_4 (Dense)              (None, 10)                40970     
=================================================================
Total params: 66,298
Trainable params: 66,074
Non-trainable params: 224
_________________________________________________________________
_________________________________________________________________
Layer (type)                 Output Shape              Param #   
=================================================================
conv2d_13 (Conv2D)           (None, 128, 128, 64)      1792      
_________________________________________________________________
batch_normalization_13 (Batc (None, 128, 128, 64)      256       
_________________________________________________________________
max_pooling2d_13 (MaxPooling (None, 64, 64, 64)        0         
_________________________________________________________________
conv2d_14 (Conv2D)           (None, 64, 64, 32)        18464     
_________________________________________________________________
batch_normalization_14 (Batc (None, 64, 64, 32)        128       
_________________________________________________________________
max_pooling2d_14 (MaxPooling (None, 32, 32, 32)        0         _________________________________________________________________
Layer (type)                 Output Shape              Param #   
=================================================================
conv2d_1 (Conv2D)            (None, 128, 128, 64)      1792      
_________________________________________________________________
batch_normalization_1 (Batch (None, 128, 128, 64)      256       
_________________________________________________________________
max_pooling2d_1 (MaxPooling2 (None, 64, 64, 64)        0         
_________________________________________________________________
conv2d_2 (Conv2D)            (None, 64, 64, 32)        18464     
_________________________________________________________________
batch_normalization_2 (Batch (None, 64, 64, 32)        128       
_________________________________________________________________
max_pooling2d_2 (MaxPooling2 (None, 32, 32, 32)        0         
_________________________________________________________________
conv2d_3 (Conv2D)            (None, 32, 32, 16)        4624      
_________________________________________________________________
batch_normalization_3 (Batch (None, 32, 32, 16)        64        
_________________________________________________________________
max_pooling2d_3 (MaxPooling2 (None, 16, 16, 16)        0         
_________________________________________________________________
flatten_1 (Flatten)          (None, 4096)              0         
_________________________________________________________________
dense_1 (Dense)              (None, 10)                40970     
=================================================================
Total params: 66,298
Trainable params: 66,074
Non-trainable params: 224
_________________________________________________________________
_________________________________________________________________
Layer (type)                 Output Shape              Param #   
=================================================================
conv2d_4 (Conv2D)            (None, 128, 128, 64)      1792      
_________________________________________________________________
batch_normalization_4 (Batch (None, 128, 128, 64)      256       
_________________________________________________________________
max_pooling2d_4 (MaxPooling2 (None, 64, 64, 64)        0         
_________________________________________________________________
conv2d_5 (Conv2D)            (None, 64, 64, 32)        18464     
_________________________________________________________________
batch_normalization_5 (Batch (None, 64, 64, 32)        128       
_________________________________________________________________
max_pooling2d_5 (MaxPooling2 (None, 32, 32, 32)        0         
_________________________________________________________________
conv2d_6 (Conv2D)            (None, 32, 32, 16)        4624      
_________________________________________________________________
batch_normalization_6 (Batch (None, 32, 32, 16)        64        
_________________________________________________________________
max_pooling2d_6 (MaxPooling2 (None, 16, 16, 16)        0         
_________________________________________________________________
flatten_2 (Flatten)          (None, 4096)              0         
_________________________________________________________________
dense_2 (Dense)              (None, 10)                40970     
=================================================================
Total params: 66,298
Trainable params: 66,074
Non-trainable params: 224
_________________________________________________________________
_________________________________________________________________
Layer (type)                 Output Shape              Param #   
=================================================================
conv2d_7 (Conv2D)            (None, 128, 128, 64)      1792      
_________________________________________________________________
batch_normalization_7 (Batch (None, 128, 128, 64)      256       
_________________________________________________________________
max_pooling2d_7 (MaxPooling2 (None, 64, 64, 64)        0         
_________________________________________________________________
conv2d_8 (Conv2D)            (None, 64, 64, 32)        18464     
_________________________________________________________________
batch_normalization_8 (Batch (None, 64, 64, 32)        128       
_________________________________________________________________
max_pooling2d_8 (MaxPooling2 (None, 32, 32, 32)        0         
_________________________________________________________________
conv2d_9 (Conv2D)            (None, 32, 32, 16)        4624      
_________________________________________________________________
batch_normalization_9 (Batch (None, 32, 32, 16)        64        
_________________________________________________________________
max_pooling2d_9 (MaxPooling2 (None, 16, 16, 16)        0         
_________________________________________________________________
flatten_3 (Flatten)          (None, 4096)              0         
_________________________________________________________________
dense_3 (Dense)              (None, 10)                40970     
=================================================================
Total params: 66,298
Trainable params: 66,074
Non-trainable params: 224
_________________________________________________________________
_________________________________________________________________
Layer (type)                 Output Shape              Param #   
=================================================================
conv2d_10 (Conv2D)           (None, 128, 128, 64)      1792      
_________________________________________________________________
batch_normalization_10 (Batc (None, 128, 128, 64)      256       
_________________________________________________________________
max_pooling2d_10 (MaxPooling (None, 64, 64, 64)        0         
_________________________________________________________________
conv2d_11 (Conv2D)           (None, 64, 64, 32)        18464     
_________________________________________________________________
batch_normalization_11 (Batc (None, 64, 64, 32)        128       
_________________________________________________________________
max_pooling2d_11 (MaxPooling (None, 32, 32, 32)        0         
_________________________________________________________________
conv2d_12 (Conv2D)           (None, 32, 32, 16)        4624      
_________________________________________________________________
batch_normalization_12 (Batc (None, 32, 32, 16)        64        
_________________________________________________________________
max_pooling2d_12 (MaxPooling (None, 16, 16, 16)        0         
_________________________________________________________________
flatten_4 (Flatten)          (None, 4096)              0         
_________________________________________________________________
dense_4 (Dense)              (None, 10)                40970     
=================================================================
Total params: 66,298
Trainable params: 66,074
Non-trainable params: 224
_________________________________________________________________
_________________________________________________________________
Layer (type)                 Output Shape              Param #   
=================================================================
conv2d_13 (Conv2D)           (None, 128, 128, 64)      1792      
_________________________________________________________________
batch_normalization_13 (Batc (None, 128, 128, 64)      256       
_________________________________________________________________
max_pooling2d_13 (MaxPooling (None, 64, 64, 64)        0         
_________________________________________________________________
conv2d_14 (Conv2D)           (None, 64, 64, 32)        18464     
_________________________________________________________________
batch_normalization_14 (Batc (None, 64, 64, 32)        128       
_________________________________________________________________
max_pooling2d_14 (MaxPooling (None, 32, 32, 32)        0         _________________________________________________________________
Layer (type)                 Output Shape              Param #   
=================================================================
conv2d_1 (Conv2D)            (None, 128, 128, 64)      1792      
_________________________________________________________________
batch_normalization_1 (Batch (None, 128, 128, 64)      256       
_________________________________________________________________
max_pooling2d_1 (MaxPooling2 (None, 64, 64, 64)        0         
_________________________________________________________________
conv2d_2 (Conv2D)            (None, 64, 64, 32)        18464     
_________________________________________________________________
batch_normalization_2 (Batch (None, 64, 64, 32)        128       
_________________________________________________________________
max_pooling2d_2 (MaxPooling2 (None, 32, 32, 32)        0         
_________________________________________________________________
conv2d_3 (Conv2D)            (None, 32, 32, 16)        4624      
_________________________________________________________________
batch_normalization_3 (Batch (None, 32, 32, 16)        64        
_________________________________________________________________
max_pooling2d_3 (MaxPooling2 (None, 16, 16, 16)        0         
_________________________________________________________________
flatten_1 (Flatten)          (None, 4096)              0         
_________________________________________________________________
dense_1 (Dense)              (None, 10)                40970     
=================================================================
Total params: 66,298
Trainable params: 66,074
Non-trainable params: 224
_________________________________________________________________
_________________________________________________________________
Layer (type)                 Output Shape              Param #   
=================================================================
conv2d_4 (Conv2D)            (None, 128, 128, 64)      1792      
_________________________________________________________________
batch_normalization_4 (Batch (None, 128, 128, 64)      256       
_________________________________________________________________
max_pooling2d_4 (MaxPooling2 (None, 64, 64, 64)        0         
_________________________________________________________________
conv2d_5 (Conv2D)            (None, 64, 64, 32)        18464     
_________________________________________________________________
batch_normalization_5 (Batch (None, 64, 64, 32)        128       
_________________________________________________________________
max_pooling2d_5 (MaxPooling2 (None, 32, 32, 32)        0         
_________________________________________________________________
conv2d_6 (Conv2D)            (None, 32, 32, 16)        4624      
_________________________________________________________________
batch_normalization_6 (Batch (None, 32, 32, 16)        64        
_________________________________________________________________
max_pooling2d_6 (MaxPooling2 (None, 16, 16, 16)        0         
_________________________________________________________________
flatten_2 (Flatten)          (None, 4096)              0         
_________________________________________________________________
dense_2 (Dense)              (None, 10)                40970     
=================================================================
Total params: 66,298
Trainable params: 66,074
Non-trainable params: 224
_________________________________________________________________
_________________________________________________________________
Layer (type)                 Output Shape              Param #   
=================================================================
conv2d_7 (Conv2D)            (None, 128, 128, 64)      1792      
_________________________________________________________________
batch_normalization_7 (Batch (None, 128, 128, 64)      256       
_________________________________________________________________
max_pooling2d_7 (MaxPooling2 (None, 64, 64, 64)        0         
_________________________________________________________________
conv2d_8 (Conv2D)            (None, 64, 64, 32)        18464     
_________________________________________________________________
batch_normalization_8 (Batch (None, 64, 64, 32)        128       
_________________________________________________________________
max_pooling2d_8 (MaxPooling2 (None, 32, 32, 32)        0         
_________________________________________________________________
conv2d_9 (Conv2D)            (None, 32, 32, 16)        4624      
_________________________________________________________________
batch_normalization_9 (Batch (None, 32, 32, 16)        64        
_________________________________________________________________
max_pooling2d_9 (MaxPooling2 (None, 16, 16, 16)        0         
_________________________________________________________________
flatten_3 (Flatten)          (None, 4096)              0         
_________________________________________________________________
dense_3 (Dense)              (None, 10)                40970     
=================================================================
Total params: 66,298
Trainable params: 66,074
Non-trainable params: 224
_________________________________________________________________
_________________________________________________________________
Layer (type)                 Output Shape              Param #   
=================================================================
conv2d_10 (Conv2D)           (None, 128, 128, 64)      1792      
_________________________________________________________________
batch_normalization_10 (Batc (None, 128, 128, 64)      256       
_________________________________________________________________
max_pooling2d_10 (MaxPooling (None, 64, 64, 64)        0         
_________________________________________________________________
conv2d_11 (Conv2D)           (None, 64, 64, 32)        18464     
_________________________________________________________________
batch_normalization_11 (Batc (None, 64, 64, 32)        128       
_________________________________________________________________
max_pooling2d_11 (MaxPooling (None, 32, 32, 32)        0         
_________________________________________________________________
conv2d_12 (Conv2D)           (None, 32, 32, 16)        4624      
_________________________________________________________________
batch_normalization_12 (Batc (None, 32, 32, 16)        64        
_________________________________________________________________
max_pooling2d_12 (MaxPooling (None, 16, 16, 16)        0         
_________________________________________________________________
flatten_4 (Flatten)          (None, 4096)              0         
_________________________________________________________________
dense_4 (Dense)              (None, 10)                40970     
=================================================================
Total params: 66,298
Trainable params: 66,074
Non-trainable params: 224
_________________________________________________________________
_________________________________________________________________
Layer (type)                 Output Shape              Param #   
=================================================================
conv2d_13 (Conv2D)           (None, 128, 128, 64)      1792      
_________________________________________________________________
batch_normalization_13 (Batc (None, 128, 128, 64)      256       
_________________________________________________________________
max_pooling2d_13 (MaxPooling (None, 64, 64, 64)        0         
_________________________________________________________________
conv2d_14 (Conv2D)           (None, 64, 64, 32)        18464     
_________________________________________________________________
batch_normalization_14 (Batc (None, 64, 64, 32)        128       
_________________________________________________________________
max_pooling2d_14 (MaxPooling (None, 32, 32, 32)        0         _________________________________________________________________
Layer (type)                 Output Shape              Param #   
=================================================================
conv2d_1 (Conv2D)            (None, 128, 128, 64)      1792      
_________________________________________________________________
batch_normalization_1 (Batch (None, 128, 128, 64)      256       
_________________________________________________________________
max_pooling2d_1 (MaxPooling2 (None, 64, 64, 64)        0         
_________________________________________________________________
conv2d_2 (Conv2D)            (None, 64, 64, 32)        18464     
_________________________________________________________________
batch_normalization_2 (Batch (None, 64, 64, 32)        128       
_________________________________________________________________
max_pooling2d_2 (MaxPooling2 (None, 32, 32, 32)        0         
_________________________________________________________________
conv2d_3 (Conv2D)            (None, 32, 32, 16)        4624      
_________________________________________________________________
batch_normalization_3 (Batch (None, 32, 32, 16)        64        
_________________________________________________________________
max_pooling2d_3 (MaxPooling2 (None, 16, 16, 16)        0         
_________________________________________________________________
flatten_1 (Flatten)          (None, 4096)              0         
_________________________________________________________________
dense_1 (Dense)              (None, 10)                40970     
=================================================================
Total params: 66,298
Trainable params: 66,074
Non-trainable params: 224
_________________________________________________________________
_________________________________________________________________
Layer (type)                 Output Shape              Param #   
=================================================================
conv2d_4 (Conv2D)            (None, 128, 128, 64)      1792      
_________________________________________________________________
batch_normalization_4 (Batch (None, 128, 128, 64)      256       
_________________________________________________________________
max_pooling2d_4 (MaxPooling2 (None, 64, 64, 64)        0         
_________________________________________________________________
conv2d_5 (Conv2D)            (None, 64, 64, 32)        18464     
_________________________________________________________________
batch_normalization_5 (Batch (None, 64, 64, 32)        128       
_________________________________________________________________
max_pooling2d_5 (MaxPooling2 (None, 32, 32, 32)        0         
_________________________________________________________________
conv2d_6 (Conv2D)            (None, 32, 32, 16)        4624      
_________________________________________________________________
batch_normalization_6 (Batch (None, 32, 32, 16)        64        
_________________________________________________________________
max_pooling2d_6 (MaxPooling2 (None, 16, 16, 16)        0         
_________________________________________________________________
flatten_2 (Flatten)          (None, 4096)              0         
_________________________________________________________________
dense_2 (Dense)              (None, 10)                40970     
=================================================================
Total params: 66,298
Trainable params: 66,074
Non-trainable params: 224
_________________________________________________________________
_________________________________________________________________
Layer (type)                 Output Shape              Param #   
=================================================================
conv2d_7 (Conv2D)            (None, 128, 128, 64)      1792      
_________________________________________________________________
batch_normalization_7 (Batch (None, 128, 128, 64)      256       
_________________________________________________________________
max_pooling2d_7 (MaxPooling2 (None, 64, 64, 64)        0         
_________________________________________________________________
conv2d_8 (Conv2D)            (None, 64, 64, 32)        18464     
_________________________________________________________________
batch_normalization_8 (Batch (None, 64, 64, 32)        128       
_________________________________________________________________
max_pooling2d_8 (MaxPooling2 (None, 32, 32, 32)        0         
_________________________________________________________________
conv2d_9 (Conv2D)            (None, 32, 32, 16)        4624      
_________________________________________________________________
batch_normalization_9 (Batch (None, 32, 32, 16)        64        
_________________________________________________________________
max_pooling2d_9 (MaxPooling2 (None, 16, 16, 16)        0         
_________________________________________________________________
flatten_3 (Flatten)          (None, 4096)              0         
_________________________________________________________________
dense_3 (Dense)              (None, 10)                40970     
=================================================================
Total params: 66,298
Trainable params: 66,074
Non-trainable params: 224
_________________________________________________________________
_________________________________________________________________
Layer (type)                 Output Shape              Param #   
=================================================================
conv2d_10 (Conv2D)           (None, 128, 128, 64)      1792      
_________________________________________________________________
batch_normalization_10 (Batc (None, 128, 128, 64)      256       
_________________________________________________________________
max_pooling2d_10 (MaxPooling (None, 64, 64, 64)        0         
_________________________________________________________________
conv2d_11 (Conv2D)           (None, 64, 64, 32)        18464     
_________________________________________________________________
batch_normalization_11 (Batc (None, 64, 64, 32)        128       
_________________________________________________________________
max_pooling2d_11 (MaxPooling (None, 32, 32, 32)        0         
_________________________________________________________________
conv2d_12 (Conv2D)           (None, 32, 32, 16)        4624      
_________________________________________________________________
batch_normalization_12 (Batc (None, 32, 32, 16)        64        
_________________________________________________________________
max_pooling2d_12 (MaxPooling (None, 16, 16, 16)        0         
_________________________________________________________________
flatten_4 (Flatten)          (None, 4096)              0         
_________________________________________________________________
dense_4 (Dense)              (None, 10)                40970     
=================================================================
Total params: 66,298
Trainable params: 66,074
Non-trainable params: 224
_________________________________________________________________
_________________________________________________________________
Layer (type)                 Output Shape              Param #   
=================================================================
conv2d_13 (Conv2D)           (None, 128, 128, 64)      1792      
_________________________________________________________________
batch_normalization_13 (Batc (None, 128, 128, 64)      256       
_________________________________________________________________
max_pooling2d_13 (MaxPooling (None, 64, 64, 64)        0         
_________________________________________________________________
conv2d_14 (Conv2D)           (None, 64, 64, 32)        18464     
_________________________________________________________________
batch_normalization_14 (Batc (None, 64, 64, 32)        128       
_________________________________________________________________
max_pooling2d_14 (MaxPooling (None, 32, 32, 32)        0         
_________________________________________________________________
conv2d_15 (Conv2D)           (None, 32, 32, 16)        4624      
_________________________________________________________________
batch_normalization_15 (Batc (None, 32, 32, 16)        64        
_________________________________________________________________
max_pooling2d_15 (MaxPooling (None, 16, 16, 16)        0         
_________________________________________________________________
flatten_5 (Flatten)          (None, 4096)              0         
_________________________________________________________________
dense_5 (Dense)              (None, 10)                40970     
=================================================================
Total params: 66,298
Trainable params: 66,074
Non-trainable params: 224
_________________________________________________________________
_________________________________________________________________
Layer (type)                 Output Shape              Param #   
=================================================================
conv2d_16 (Conv2D)           (None, 128, 128, 64)      1792      
_________________________________________________________________
batch_normalization_16 (Batc (None, 128, 128, 64)      256       
_________________________________________________________________
max_pooling2d_16 (MaxPooling (None, 64, 64, 64)        0         
_________________________________________________________________
conv2d_17 (Conv2D)           (None, 64, 64, 32)        18464     
_________________________________________________________________
batch_normalization_17 (Batc (None, 64, 64, 32)        128       
_________________________________________________________________
max_pooling2d_17 (MaxPooling (None, 32, 32, 32)        0         
_________________________________________________________________
conv2d_18 (Conv2D)           (None, 32, 32, 16)        4624      
_________________________________________________________________
batch_normalization_18 (Batc (None, 32, 32, 16)        64        
_________________________________________________________________
max_pooling2d_18 (MaxPooling (None, 16, 16, 16)        0         
_________________________________________________________________
flatten_6 (Flatten)          (None, 4096)              0         
_________________________________________________________________
dense_6 (Dense)              (None, 10)                40970     
=================================================================
Total params: 66,298
Trainable params: 66,074
Non-trainable params: 224
_________________________________________________________________
_________________________________________________________________
Layer (type)                 Output Shape              Param #   
=================================================================
conv2d_19 (Conv2D)           (None, 128, 128, 64)      1792      
_________________________________________________________________
batch_normalization_19 (Batc (None, 128, 128, 64)      256       
_________________________________________________________________
max_pooling2d_19 (MaxPooling (None, 64, 64, 64)        0         
_________________________________________________________________
conv2d_20 (Conv2D)           (None, 64, 64, 32)        18464     
_________________________________________________________________
batch_normalization_20 (Batc (None, 64, 64, 32)        128       
_________________________________________________________________
max_pooling2d_20 (MaxPooling (None, 32, 32, 32)        0         
_________________________________________________________________
conv2d_21 (Conv2D)           (None, 32, 32, 16)        4624      
_________________________________________________________________
batch_normalization_21 (Batc (None, 32, 32, 16)        64        
_________________________________________________________________
max_pooling2d_21 (MaxPooling (None, 16, 16, 16)        0         
_________________________________________________________________
flatten_7 (Flatten)          (None, 4096)              0         
_________________________________________________________________
dense_7 (Dense)              (None, 10)                40970     
=================================================================
Total params: 66,298
Trainable params: 66,074
Non-trainable params: 224
_________________________________________________________________
_________________________________________________________________
Layer (type)                 Output Shape              Param #   
=================================================================
conv2d_22 (Conv2D)           (None, 128, 128, 64)      1792      
_________________________________________________________________
batch_normalization_22 (Batc (None, 128, 128, 64)      256       
_________________________________________________________________
max_pooling2d_22 (MaxPooling (None, 64, 64, 64)        0         
_________________________________________________________________
conv2d_23 (Conv2D)           (None, 64, 64, 32)        18464     
_________________________________________________________________
batch_normalization_23 (Batc (None, 64, 64, 32)        128       
_________________________________________________________________
max_pooling2d_23 (MaxPooling (None, 32, 32, 32)        0         
_________________________________________________________________
conv2d_24 (Conv2D)           (None, 32, 32, 16)        4624      
_________________________________________________________________
batch_normalization_24 (Batc (None, 32, 32, 16)        64        
_________________________________________________________________
max_pooling2d_24 (MaxPooling (None, 16, 16, 16)        0         
_________________________________________________________________
flatten_8 (Flatten)          (None, 4096)              0         
_________________________________________________________________
dense_8 (Dense)              (None, 10)                40970     
=================================================================
Total params: 66,298
Trainable params: 66,074
Non-trainable params: 224
_________________________________________________________________
_________________________________________________________________
Layer (type)                 Output Shape              Param #   
=================================================================
conv2d_25 (Conv2D)           (None, 128, 128, 64)      1792      
_________________________________________________________________
batch_normalization_25 (Batc (None, 128, 128, 64)      256       
_________________________________________________________________
max_pooling2d_25 (MaxPooling (None, 64, 64, 64)        0         
_________________________________________________________________
conv2d_26 (Conv2D)           (None, 64, 64, 32)        18464     
_________________________________________________________________
batch_normalization_26 (Batc (None, 64, 64, 32)        128       
_________________________________________________________________
max_pooling2d_26 (MaxPooling (None, 32, 32, 32)        0         
_________________________________________________________________
conv2d_27 (Conv2D)           (None, 32, 32, 16)        4624      
_________________________________________________________________
batch_normalization_27 (Batc (None, 32, 32, 16)        64        
_________________________________________________________________
max_pooling2d_27 (MaxPooling (None, 16, 16, 16)        0         
_________________________________________________________________
flatten_9 (Flatten)          (None, 4096)              0         
_________________________________________________________________
dense_9 (Dense)              (None, 10)                40970     
=================================================================
Total params: 66,298
Trainable params: 66,074
Non-trainable params: 224
_________________________________________________________________
_________________________________________________________________
_________________________________________________________________
conv2d_15 (Conv2D)           (None, 32, 32, 16)        4624      
_________________________________________________________________
batch_normalization_15 (Batc (None, 32, 32, 16)        64        
_________________________________________________________________
max_pooling2d_15 (MaxPooling (None, 16, 16, 16)        0         
_________________________________________________________________
flatten_5 (Flatten)          (None, 4096)              0         
_________________________________________________________________
dense_5 (Dense)              (None, 10)                40970     
=================================================================
Total params: 66,298
Trainable params: 66,074
Non-trainable params: 224
_________________________________________________________________
_________________________________________________________________
Layer (type)                 Output Shape              Param #   
=================================================================
conv2d_16 (Conv2D)           (None, 128, 128, 64)      1792      
_________________________________________________________________
batch_normalization_16 (Batc (None, 128, 128, 64)      256       
_________________________________________________________________
max_pooling2d_16 (MaxPooling (None, 64, 64, 64)        0         
_________________________________________________________________
conv2d_17 (Conv2D)           (None, 64, 64, 32)        18464     
_________________________________________________________________
batch_normalization_17 (Batc (None, 64, 64, 32)        128       
_________________________________________________________________
max_pooling2d_17 (MaxPooling (None, 32, 32, 32)        0         
_________________________________________________________________
conv2d_18 (Conv2D)           (None, 32, 32, 16)        4624      
_________________________________________________________________
batch_normalization_18 (Batc (None, 32, 32, 16)        64        
_________________________________________________________________
max_pooling2d_18 (MaxPooling (None, 16, 16, 16)        0         
_________________________________________________________________
flatten_6 (Flatten)          (None, 4096)              0         
_________________________________________________________________
dense_6 (Dense)              (None, 10)                40970     
=================================================================
Total params: 66,298
Trainable params: 66,074
Non-trainable params: 224
_________________________________________________________________
_________________________________________________________________
Layer (type)                 Output Shape              Param #   
=================================================================
conv2d_19 (Conv2D)           (None, 128, 128, 64)      1792      
_________________________________________________________________
batch_normalization_19 (Batc (None, 128, 128, 64)      256       
_________________________________________________________________
max_pooling2d_19 (MaxPooling (None, 64, 64, 64)        0         
_________________________________________________________________
conv2d_20 (Conv2D)           (None, 64, 64, 32)        18464     
_________________________________________________________________
batch_normalization_20 (Batc (None, 64, 64, 32)        128       
_________________________________________________________________
max_pooling2d_20 (MaxPooling (None, 32, 32, 32)        0         
_________________________________________________________________
conv2d_21 (Conv2D)           (None, 32, 32, 16)        4624      
_________________________________________________________________
batch_normalization_21 (Batc (None, 32, 32, 16)        64        
_________________________________________________________________
max_pooling2d_21 (MaxPooling (None, 16, 16, 16)        0         
_________________________________________________________________
flatten_7 (Flatten)          (None, 4096)              0         
_________________________________________________________________
dense_7 (Dense)              (None, 10)                40970     
=================================================================
Total params: 66,298
Trainable params: 66,074
Non-trainable params: 224
_________________________________________________________________
_________________________________________________________________
Layer (type)                 Output Shape              Param #   
=================================================================
conv2d_22 (Conv2D)           (None, 128, 128, 64)      1792      
_________________________________________________________________
batch_normalization_22 (Batc (None, 128, 128, 64)      256       
_________________________________________________________________
max_pooling2d_22 (MaxPooling (None, 64, 64, 64)        0         
_________________________________________________________________
conv2d_23 (Conv2D)           (None, 64, 64, 32)        18464     
_________________________________________________________________
batch_normalization_23 (Batc (None, 64, 64, 32)        128       
_________________________________________________________________
max_pooling2d_23 (MaxPooling (None, 32, 32, 32)        0         
_________________________________________________________________
conv2d_24 (Conv2D)           (None, 32, 32, 16)        4624      
_________________________________________________________________
batch_normalization_24 (Batc (None, 32, 32, 16)        64        
_________________________________________________________________
max_pooling2d_24 (MaxPooling (None, 16, 16, 16)        0         
_________________________________________________________________
flatten_8 (Flatten)          (None, 4096)              0         
_________________________________________________________________
dense_8 (Dense)              (None, 10)                40970     
=================================================================
Total params: 66,298
Trainable params: 66,074
Non-trainable params: 224
_________________________________________________________________
_________________________________________________________________
Layer (type)                 Output Shape              Param #   
=================================================================
conv2d_25 (Conv2D)           (None, 128, 128, 64)      1792      
_________________________________________________________________
batch_normalization_25 (Batc (None, 128, 128, 64)      256       
_________________________________________________________________
max_pooling2d_25 (MaxPooling (None, 64, 64, 64)        0         
_________________________________________________________________
conv2d_26 (Conv2D)           (None, 64, 64, 32)        18464     
_________________________________________________________________
batch_normalization_26 (Batc (None, 64, 64, 32)        128       
_________________________________________________________________
max_pooling2d_26 (MaxPooling (None, 32, 32, 32)        0         
_________________________________________________________________
conv2d_27 (Conv2D)           (None, 32, 32, 16)        4624      
_________________________________________________________________
batch_normalization_27 (Batc (None, 32, 32, 16)        64        
_________________________________________________________________
max_pooling2d_27 (MaxPooling (None, 16, 16, 16)        0         
_________________________________________________________________
flatten_9 (Flatten)          (None, 4096)              0         
_________________________________________________________________
dense_9 (Dense)              (None, 10)                40970     
=================================================================
Total params: 66,298
Trainable params: 66,074
Non-trainable params: 224
_________________________________________________________________
_________________________________________________________________
_________________________________________________________________
conv2d_15 (Conv2D)           (None, 32, 32, 16)        4624      
_________________________________________________________________
batch_normalization_15 (Batc (None, 32, 32, 16)        64        
_________________________________________________________________
max_pooling2d_15 (MaxPooling (None, 16, 16, 16)        0         
_________________________________________________________________
flatten_5 (Flatten)          (None, 4096)              0         
_________________________________________________________________
dense_5 (Dense)              (None, 10)                40970     
=================================================================
Total params: 66,298
Trainable params: 66,074
Non-trainable params: 224
_________________________________________________________________
_________________________________________________________________
Layer (type)                 Output Shape              Param #   
=================================================================
conv2d_16 (Conv2D)           (None, 128, 128, 64)      1792      
_________________________________________________________________
batch_normalization_16 (Batc (None, 128, 128, 64)      256       
_________________________________________________________________
max_pooling2d_16 (MaxPooling (None, 64, 64, 64)        0         
_________________________________________________________________
conv2d_17 (Conv2D)           (None, 64, 64, 32)        18464     
_________________________________________________________________
batch_normalization_17 (Batc (None, 64, 64, 32)        128       
_________________________________________________________________
max_pooling2d_17 (MaxPooling (None, 32, 32, 32)        0         
_________________________________________________________________
conv2d_18 (Conv2D)           (None, 32, 32, 16)        4624      
_________________________________________________________________
batch_normalization_18 (Batc (None, 32, 32, 16)        64        
_________________________________________________________________
max_pooling2d_18 (MaxPooling (None, 16, 16, 16)        0         
_________________________________________________________________
flatten_6 (Flatten)          (None, 4096)              0         
_________________________________________________________________
dense_6 (Dense)              (None, 10)                40970     
=================================================================
Total params: 66,298
Trainable params: 66,074
Non-trainable params: 224
_________________________________________________________________
_________________________________________________________________
Layer (type)                 Output Shape              Param #   
=================================================================
conv2d_19 (Conv2D)           (None, 128, 128, 64)      1792      
_________________________________________________________________
batch_normalization_19 (Batc (None, 128, 128, 64)      256       
_________________________________________________________________
max_pooling2d_19 (MaxPooling (None, 64, 64, 64)        0         
_________________________________________________________________
conv2d_20 (Conv2D)           (None, 64, 64, 32)        18464     
_________________________________________________________________
batch_normalization_20 (Batc (None, 64, 64, 32)        128       
_________________________________________________________________
max_pooling2d_20 (MaxPooling (None, 32, 32, 32)        0         
_________________________________________________________________
conv2d_21 (Conv2D)           (None, 32, 32, 16)        4624      
_________________________________________________________________
batch_normalization_21 (Batc (None, 32, 32, 16)        64        
_________________________________________________________________
max_pooling2d_21 (MaxPooling (None, 16, 16, 16)        0         
_________________________________________________________________
flatten_7 (Flatten)          (None, 4096)              0         
_________________________________________________________________
dense_7 (Dense)              (None, 10)                40970     
=================================================================
Total params: 66,298
Trainable params: 66,074
Non-trainable params: 224
_________________________________________________________________
_________________________________________________________________
Layer (type)                 Output Shape              Param #   
=================================================================
conv2d_22 (Conv2D)           (None, 128, 128, 64)      1792      
_________________________________________________________________
batch_normalization_22 (Batc (None, 128, 128, 64)      256       
_________________________________________________________________
max_pooling2d_22 (MaxPooling (None, 64, 64, 64)        0         
_________________________________________________________________
conv2d_23 (Conv2D)           (None, 64, 64, 32)        18464     
_________________________________________________________________
batch_normalization_23 (Batc (None, 64, 64, 32)        128       
_________________________________________________________________
max_pooling2d_23 (MaxPooling (None, 32, 32, 32)        0         
_________________________________________________________________
conv2d_24 (Conv2D)           (None, 32, 32, 16)        4624      
_________________________________________________________________
batch_normalization_24 (Batc (None, 32, 32, 16)        64        
_________________________________________________________________
max_pooling2d_24 (MaxPooling (None, 16, 16, 16)        0         
_________________________________________________________________
flatten_8 (Flatten)          (None, 4096)              0         
_________________________________________________________________
dense_8 (Dense)              (None, 10)                40970     
=================================================================
Total params: 66,298
Trainable params: 66,074
Non-trainable params: 224
_________________________________________________________________
_________________________________________________________________
Layer (type)                 Output Shape              Param #   
=================================================================
conv2d_25 (Conv2D)           (None, 128, 128, 64)      1792      
_________________________________________________________________
batch_normalization_25 (Batc (None, 128, 128, 64)      256       
_________________________________________________________________
max_pooling2d_25 (MaxPooling (None, 64, 64, 64)        0         
_________________________________________________________________
conv2d_26 (Conv2D)           (None, 64, 64, 32)        18464     
_________________________________________________________________
batch_normalization_26 (Batc (None, 64, 64, 32)        128       
_________________________________________________________________
max_pooling2d_26 (MaxPooling (None, 32, 32, 32)        0         
_________________________________________________________________
conv2d_27 (Conv2D)           (None, 32, 32, 16)        4624      
_________________________________________________________________
batch_normalization_27 (Batc (None, 32, 32, 16)        64        
_________________________________________________________________
max_pooling2d_27 (MaxPooling (None, 16, 16, 16)        0         
_________________________________________________________________
flatten_9 (Flatten)          (None, 4096)              0         
_________________________________________________________________
dense_9 (Dense)              (None, 10)                40970     
=================================================================
Total params: 66,298
Trainable params: 66,074
Non-trainable params: 224
_________________________________________________________________
_________________________________________________________________
_________________________________________________________________
conv2d_15 (Conv2D)           (None, 32, 32, 16)        4624      
_________________________________________________________________
batch_normalization_15 (Batc (None, 32, 32, 16)        64        
_________________________________________________________________
max_pooling2d_15 (MaxPooling (None, 16, 16, 16)        0         
_________________________________________________________________
flatten_5 (Flatten)          (None, 4096)              0         
_________________________________________________________________
dense_5 (Dense)              (None, 10)                40970     
=================================================================
Total params: 66,298
Trainable params: 66,074
Non-trainable params: 224
_________________________________________________________________
_________________________________________________________________
Layer (type)                 Output Shape              Param #   
=================================================================
conv2d_16 (Conv2D)           (None, 128, 128, 64)      1792      
_________________________________________________________________
batch_normalization_16 (Batc (None, 128, 128, 64)      256       
_________________________________________________________________
max_pooling2d_16 (MaxPooling (None, 64, 64, 64)        0         
_________________________________________________________________
conv2d_17 (Conv2D)           (None, 64, 64, 32)        18464     
_________________________________________________________________
batch_normalization_17 (Batc (None, 64, 64, 32)        128       
_________________________________________________________________
max_pooling2d_17 (MaxPooling (None, 32, 32, 32)        0         
_________________________________________________________________
conv2d_18 (Conv2D)           (None, 32, 32, 16)        4624      
_________________________________________________________________
batch_normalization_18 (Batc (None, 32, 32, 16)        64        
_________________________________________________________________
max_pooling2d_18 (MaxPooling (None, 16, 16, 16)        0         
_________________________________________________________________
flatten_6 (Flatten)          (None, 4096)              0         
_________________________________________________________________
dense_6 (Dense)              (None, 10)                40970     
=================================================================
Total params: 66,298
Trainable params: 66,074
Non-trainable params: 224
_________________________________________________________________
_________________________________________________________________
Layer (type)                 Output Shape              Param #   
=================================================================
conv2d_19 (Conv2D)           (None, 128, 128, 64)      1792      
_________________________________________________________________
batch_normalization_19 (Batc (None, 128, 128, 64)      256       
_________________________________________________________________
max_pooling2d_19 (MaxPooling (None, 64, 64, 64)        0         
_________________________________________________________________
conv2d_20 (Conv2D)           (None, 64, 64, 32)        18464     
_________________________________________________________________
batch_normalization_20 (Batc (None, 64, 64, 32)        128       
_________________________________________________________________
max_pooling2d_20 (MaxPooling (None, 32, 32, 32)        0         
_________________________________________________________________
conv2d_21 (Conv2D)           (None, 32, 32, 16)        4624      
_________________________________________________________________
batch_normalization_21 (Batc (None, 32, 32, 16)        64        
_________________________________________________________________
max_pooling2d_21 (MaxPooling (None, 16, 16, 16)        0         
_________________________________________________________________
flatten_7 (Flatten)          (None, 4096)              0         
_________________________________________________________________
dense_7 (Dense)              (None, 10)                40970     
=================================================================
Total params: 66,298
Trainable params: 66,074
Non-trainable params: 224
_________________________________________________________________
_________________________________________________________________
Layer (type)                 Output Shape              Param #   
=================================================================
conv2d_22 (Conv2D)           (None, 128, 128, 64)      1792      
_________________________________________________________________
batch_normalization_22 (Batc (None, 128, 128, 64)      256       
_________________________________________________________________
max_pooling2d_22 (MaxPooling (None, 64, 64, 64)        0         
_________________________________________________________________
conv2d_23 (Conv2D)           (None, 64, 64, 32)        18464     
_________________________________________________________________
batch_normalization_23 (Batc (None, 64, 64, 32)        128       
_________________________________________________________________
max_pooling2d_23 (MaxPooling (None, 32, 32, 32)        0         
_________________________________________________________________
conv2d_24 (Conv2D)           (None, 32, 32, 16)        4624      
_________________________________________________________________
batch_normalization_24 (Batc (None, 32, 32, 16)        64        
_________________________________________________________________
max_pooling2d_24 (MaxPooling (None, 16, 16, 16)        0         
_________________________________________________________________
flatten_8 (Flatten)          (None, 4096)              0         
_________________________________________________________________
dense_8 (Dense)              (None, 10)                40970     
=================================================================
Total params: 66,298
Trainable params: 66,074
Non-trainable params: 224
_________________________________________________________________
_________________________________________________________________
Layer (type)                 Output Shape              Param #   
=================================================================
conv2d_25 (Conv2D)           (None, 128, 128, 64)      1792      
_________________________________________________________________
batch_normalization_25 (Batc (None, 128, 128, 64)      256       
_________________________________________________________________
max_pooling2d_25 (MaxPooling (None, 64, 64, 64)        0         
_________________________________________________________________
conv2d_26 (Conv2D)           (None, 64, 64, 32)        18464     
_________________________________________________________________
batch_normalization_26 (Batc (None, 64, 64, 32)        128       
_________________________________________________________________
max_pooling2d_26 (MaxPooling (None, 32, 32, 32)        0         
_________________________________________________________________
conv2d_27 (Conv2D)           (None, 32, 32, 16)        4624      
_________________________________________________________________
batch_normalization_27 (Batc (None, 32, 32, 16)        64        
_________________________________________________________________
max_pooling2d_27 (MaxPooling (None, 16, 16, 16)        0         
_________________________________________________________________
flatten_9 (Flatten)          (None, 4096)              0         
_________________________________________________________________
dense_9 (Dense)              (None, 10)                40970     
=================================================================
Total params: 66,298
Trainable params: 66,074
Non-trainable params: 224
_________________________________________________________________
_________________________________________________________________
Layer (type)                 Output Shape              Param #   
=================================================================
conv2d_28 (Conv2D)           (None, 128, 128, 64)      1792      
_________________________________________________________________
batch_normalization_28 (Batc (None, 128, 128, 64)      256       
_________________________________________________________________
max_pooling2d_28 (MaxPooling (None, 64, 64, 64)        0         
_________________________________________________________________
conv2d_29 (Conv2D)           (None, 64, 64, 32)        18464     
_________________________________________________________________
batch_normalization_29 (Batc (None, 64, 64, 32)        128       
_________________________________________________________________
max_pooling2d_29 (MaxPooling (None, 32, 32, 32)        0         
_________________________________________________________________
conv2d_30 (Conv2D)           (None, 32, 32, 16)        4624      
_________________________________________________________________
batch_normalization_30 (Batc (None, 32, 32, 16)        64        
_________________________________________________________________
max_pooling2d_30 (MaxPooling (None, 16, 16, 16)        0         
_________________________________________________________________
flatten_10 (Flatten)         (None, 4096)              0         
_________________________________________________________________
dense_10 (Dense)             (None, 10)                40970     
=================================================================
Total params: 66,298
Trainable params: 66,074
Non-trainable params: 224
_________________________________________________________________
_________________________________________________________________
Layer (type)                 Output Shape              Param #   
=================================================================
conv2d_31 (Conv2D)           (None, 128, 128, 64)      1792      
_________________________________________________________________
batch_normalization_31 (Batc (None, 128, 128, 64)      256       
_________________________________________________________________
max_pooling2d_31 (MaxPooling (None, 64, 64, 64)        0         
_________________________________________________________________
conv2d_32 (Conv2D)           (None, 64, 64, 32)        18464     
_________________________________________________________________
batch_normalization_32 (Batc (None, 64, 64, 32)        128       
_________________________________________________________________
max_pooling2d_32 (MaxPooling (None, 32, 32, 32)        0         
_________________________________________________________________
conv2d_33 (Conv2D)           (None, 32, 32, 16)        4624      
_________________________________________________________________
batch_normalization_33 (Batc (None, 32, 32, 16)        64        
_________________________________________________________________
max_pooling2d_33 (MaxPooling (None, 16, 16, 16)        0         
_________________________________________________________________
flatten_11 (Flatten)         (None, 4096)              0         
_________________________________________________________________
dense_11 (Dense)             (None, 10)                40970     
=================================================================
Total params: 66,298
Trainable params: 66,074
Non-trainable params: 224
_________________________________________________________________
_________________________________________________________________
Layer (type)                 Output Shape              Param #   
=================================================================
conv2d_34 (Conv2D)           (None, 128, 128, 64)      1792      
_________________________________________________________________
batch_normalization_34 (Batc (None, 128, 128, 64)      256       
_________________________________________________________________
max_pooling2d_34 (MaxPooling (None, 64, 64, 64)        0         
_________________________________________________________________
conv2d_35 (Conv2D)           (None, 64, 64, 32)        18464     
_________________________________________________________________
batch_normalization_35 (Batc (None, 64, 64, 32)        128       
_________________________________________________________________
max_pooling2d_35 (MaxPooling (None, 32, 32, 32)        0         
_________________________________________________________________
conv2d_36 (Conv2D)           (None, 32, 32, 16)        4624      
_________________________________________________________________
batch_normalization_36 (Batc (None, 32, 32, 16)        64        
_________________________________________________________________
max_pooling2d_36 (MaxPooling (None, 16, 16, 16)        0         
_________________________________________________________________
flatten_12 (Flatten)         (None, 4096)              0         
_________________________________________________________________
dense_12 (Dense)             (None, 10)                40970     
=================================================================
Total params: 66,298
Trainable params: 66,074
Non-trainable params: 224
_________________________________________________________________
_________________________________________________________________
Layer (type)                 Output Shape              Param #   
=================================================================
conv2d_37 (Conv2D)           (None, 128, 128, 64)      1792      
_________________________________________________________________
batch_normalization_37 (Batc (None, 128, 128, 64)      256       
_________________________________________________________________
max_pooling2d_37 (MaxPooling (None, 64, 64, 64)        0         
_________________________________________________________________
conv2d_38 (Conv2D)           (None, 64, 64, 32)        18464     
_________________________________________________________________
batch_normalization_38 (Batc (None, 64, 64, 32)        128       
_________________________________________________________________
max_pooling2d_38 (MaxPooling (None, 32, 32, 32)        0         
_________________________________________________________________
conv2d_39 (Conv2D)           (None, 32, 32, 16)        4624      
_________________________________________________________________
batch_normalization_39 (Batc (None, 32, 32, 16)        64        
_________________________________________________________________
max_pooling2d_39 (MaxPooling (None, 16, 16, 16)        0         
_________________________________________________________________
flatten_13 (Flatten)         (None, 4096)              0         
_________________________________________________________________
dense_13 (Dense)             (None, 10)                40970     
=================================================================
Total params: 66,298
Trainable params: 66,074
Non-trainable params: 224
_________________________________________________________________
_________________________________________________________________
Layer (type)                 Output Shape              Param #   
=================================================================
conv2d_40 (Conv2D)           (None, 128, 128, 64)      1792      
_________________________________________________________________
batch_normalization_40 (Batc (None, 128, 128, 64)      256       
_________________________________________________________________
max_pooling2d_40 (MaxPooling (None, 64, 64, 64)        0         
_________________________________________________________________
conv2d_41 (Conv2D)           (None, 64, 64, 32)        18464     
_________________________________________________________________
batch_normalization_41 (Batc (None, 64, 64, 32)        128       
_________________________________________________________________
max_pooling2d_41 (MaxPooling (None, 32, 32, 32)        0         
_________________________________________________________________
Layer (type)                 Output Shape              Param #   
=================================================================
conv2d_28 (Conv2D)           (None, 128, 128, 64)      1792      
_________________________________________________________________
batch_normalization_28 (Batc (None, 128, 128, 64)      256       
_________________________________________________________________
max_pooling2d_28 (MaxPooling (None, 64, 64, 64)        0         
_________________________________________________________________
conv2d_29 (Conv2D)           (None, 64, 64, 32)        18464     
_________________________________________________________________
batch_normalization_29 (Batc (None, 64, 64, 32)        128       
_________________________________________________________________
max_pooling2d_29 (MaxPooling (None, 32, 32, 32)        0         
_________________________________________________________________
conv2d_30 (Conv2D)           (None, 32, 32, 16)        4624      
_________________________________________________________________
batch_normalization_30 (Batc (None, 32, 32, 16)        64        
_________________________________________________________________
max_pooling2d_30 (MaxPooling (None, 16, 16, 16)        0         
_________________________________________________________________
flatten_10 (Flatten)         (None, 4096)              0         
_________________________________________________________________
dense_10 (Dense)             (None, 10)                40970     
=================================================================
Total params: 66,298
Trainable params: 66,074
Non-trainable params: 224
_________________________________________________________________
_________________________________________________________________
Layer (type)                 Output Shape              Param #   
=================================================================
conv2d_31 (Conv2D)           (None, 128, 128, 64)      1792      
_________________________________________________________________
batch_normalization_31 (Batc (None, 128, 128, 64)      256       
_________________________________________________________________
max_pooling2d_31 (MaxPooling (None, 64, 64, 64)        0         
_________________________________________________________________
conv2d_32 (Conv2D)           (None, 64, 64, 32)        18464     
_________________________________________________________________
batch_normalization_32 (Batc (None, 64, 64, 32)        128       
_________________________________________________________________
max_pooling2d_32 (MaxPooling (None, 32, 32, 32)        0         
_________________________________________________________________
conv2d_33 (Conv2D)           (None, 32, 32, 16)        4624      
_________________________________________________________________
batch_normalization_33 (Batc (None, 32, 32, 16)        64        
_________________________________________________________________
max_pooling2d_33 (MaxPooling (None, 16, 16, 16)        0         
_________________________________________________________________
flatten_11 (Flatten)         (None, 4096)              0         
_________________________________________________________________
dense_11 (Dense)             (None, 10)                40970     
=================================================================
Total params: 66,298
Trainable params: 66,074
Non-trainable params: 224
_________________________________________________________________
_________________________________________________________________
Layer (type)                 Output Shape              Param #   
=================================================================
conv2d_34 (Conv2D)           (None, 128, 128, 64)      1792      
_________________________________________________________________
batch_normalization_34 (Batc (None, 128, 128, 64)      256       
_________________________________________________________________
max_pooling2d_34 (MaxPooling (None, 64, 64, 64)        0         
_________________________________________________________________
conv2d_35 (Conv2D)           (None, 64, 64, 32)        18464     
_________________________________________________________________
batch_normalization_35 (Batc (None, 64, 64, 32)        128       
_________________________________________________________________
max_pooling2d_35 (MaxPooling (None, 32, 32, 32)        0         
_________________________________________________________________
conv2d_36 (Conv2D)           (None, 32, 32, 16)        4624      
_________________________________________________________________
batch_normalization_36 (Batc (None, 32, 32, 16)        64        
_________________________________________________________________
max_pooling2d_36 (MaxPooling (None, 16, 16, 16)        0         
_________________________________________________________________
flatten_12 (Flatten)         (None, 4096)              0         
_________________________________________________________________
dense_12 (Dense)             (None, 10)                40970     
=================================================================
Total params: 66,298
Trainable params: 66,074
Non-trainable params: 224
_________________________________________________________________
_________________________________________________________________
Layer (type)                 Output Shape              Param #   
=================================================================
conv2d_37 (Conv2D)           (None, 128, 128, 64)      1792      
_________________________________________________________________
batch_normalization_37 (Batc (None, 128, 128, 64)      256       
_________________________________________________________________
max_pooling2d_37 (MaxPooling (None, 64, 64, 64)        0         
_________________________________________________________________
conv2d_38 (Conv2D)           (None, 64, 64, 32)        18464     
_________________________________________________________________
batch_normalization_38 (Batc (None, 64, 64, 32)        128       
_________________________________________________________________
max_pooling2d_38 (MaxPooling (None, 32, 32, 32)        0         
_________________________________________________________________
conv2d_39 (Conv2D)           (None, 32, 32, 16)        4624      
_________________________________________________________________
batch_normalization_39 (Batc (None, 32, 32, 16)        64        
_________________________________________________________________
max_pooling2d_39 (MaxPooling (None, 16, 16, 16)        0         
_________________________________________________________________
flatten_13 (Flatten)         (None, 4096)              0         
_________________________________________________________________
dense_13 (Dense)             (None, 10)                40970     
=================================================================
Total params: 66,298
Trainable params: 66,074
Non-trainable params: 224
_________________________________________________________________
_________________________________________________________________
Layer (type)                 Output Shape              Param #   
=================================================================
conv2d_40 (Conv2D)           (None, 128, 128, 64)      1792      
_________________________________________________________________
batch_normalization_40 (Batc (None, 128, 128, 64)      256       
_________________________________________________________________
max_pooling2d_40 (MaxPooling (None, 64, 64, 64)        0         
_________________________________________________________________
conv2d_41 (Conv2D)           (None, 64, 64, 32)        18464     
_________________________________________________________________
batch_normalization_41 (Batc (None, 64, 64, 32)        128       
_________________________________________________________________
max_pooling2d_41 (MaxPooling (None, 32, 32, 32)        0         
_________________________________________________________________
Layer (type)                 Output Shape              Param #   
=================================================================
conv2d_28 (Conv2D)           (None, 128, 128, 64)      1792      
_________________________________________________________________
batch_normalization_28 (Batc (None, 128, 128, 64)      256       
_________________________________________________________________
max_pooling2d_28 (MaxPooling (None, 64, 64, 64)        0         
_________________________________________________________________
conv2d_29 (Conv2D)           (None, 64, 64, 32)        18464     
_________________________________________________________________
batch_normalization_29 (Batc (None, 64, 64, 32)        128       
_________________________________________________________________
max_pooling2d_29 (MaxPooling (None, 32, 32, 32)        0         
_________________________________________________________________
conv2d_30 (Conv2D)           (None, 32, 32, 16)        4624      
_________________________________________________________________
batch_normalization_30 (Batc (None, 32, 32, 16)        64        
_________________________________________________________________
max_pooling2d_30 (MaxPooling (None, 16, 16, 16)        0         
_________________________________________________________________
flatten_10 (Flatten)         (None, 4096)              0         
_________________________________________________________________
dense_10 (Dense)             (None, 10)                40970     
=================================================================
Total params: 66,298
Trainable params: 66,074
Non-trainable params: 224
_________________________________________________________________
_________________________________________________________________
Layer (type)                 Output Shape              Param #   
=================================================================
conv2d_31 (Conv2D)           (None, 128, 128, 64)      1792      
_________________________________________________________________
batch_normalization_31 (Batc (None, 128, 128, 64)      256       
_________________________________________________________________
max_pooling2d_31 (MaxPooling (None, 64, 64, 64)        0         
_________________________________________________________________
conv2d_32 (Conv2D)           (None, 64, 64, 32)        18464     
_________________________________________________________________
batch_normalization_32 (Batc (None, 64, 64, 32)        128       
_________________________________________________________________
max_pooling2d_32 (MaxPooling (None, 32, 32, 32)        0         
_________________________________________________________________
conv2d_33 (Conv2D)           (None, 32, 32, 16)        4624      
_________________________________________________________________
batch_normalization_33 (Batc (None, 32, 32, 16)        64        
_________________________________________________________________
max_pooling2d_33 (MaxPooling (None, 16, 16, 16)        0         
_________________________________________________________________
flatten_11 (Flatten)         (None, 4096)              0         
_________________________________________________________________
dense_11 (Dense)             (None, 10)                40970     
=================================================================
Total params: 66,298
Trainable params: 66,074
Non-trainable params: 224
_________________________________________________________________
_________________________________________________________________
Layer (type)                 Output Shape              Param #   
=================================================================
conv2d_34 (Conv2D)           (None, 128, 128, 64)      1792      
_________________________________________________________________
batch_normalization_34 (Batc (None, 128, 128, 64)      256       
_________________________________________________________________
max_pooling2d_34 (MaxPooling (None, 64, 64, 64)        0         
_________________________________________________________________
conv2d_35 (Conv2D)           (None, 64, 64, 32)        18464     
_________________________________________________________________
batch_normalization_35 (Batc (None, 64, 64, 32)        128       
_________________________________________________________________
max_pooling2d_35 (MaxPooling (None, 32, 32, 32)        0         
_________________________________________________________________
conv2d_36 (Conv2D)           (None, 32, 32, 16)        4624      
_________________________________________________________________
batch_normalization_36 (Batc (None, 32, 32, 16)        64        
_________________________________________________________________
max_pooling2d_36 (MaxPooling (None, 16, 16, 16)        0         
_________________________________________________________________
flatten_12 (Flatten)         (None, 4096)              0         
_________________________________________________________________
dense_12 (Dense)             (None, 10)                40970     
=================================================================
Total params: 66,298
Trainable params: 66,074
Non-trainable params: 224
_________________________________________________________________
_________________________________________________________________
Layer (type)                 Output Shape              Param #   
=================================================================
conv2d_37 (Conv2D)           (None, 128, 128, 64)      1792      
_________________________________________________________________
batch_normalization_37 (Batc (None, 128, 128, 64)      256       
_________________________________________________________________
max_pooling2d_37 (MaxPooling (None, 64, 64, 64)        0         
_________________________________________________________________
conv2d_38 (Conv2D)           (None, 64, 64, 32)        18464     
_________________________________________________________________
batch_normalization_38 (Batc (None, 64, 64, 32)        128       
_________________________________________________________________
max_pooling2d_38 (MaxPooling (None, 32, 32, 32)        0         
_________________________________________________________________
conv2d_39 (Conv2D)           (None, 32, 32, 16)        4624      
_________________________________________________________________
batch_normalization_39 (Batc (None, 32, 32, 16)        64        
_________________________________________________________________
max_pooling2d_39 (MaxPooling (None, 16, 16, 16)        0         
_________________________________________________________________
flatten_13 (Flatten)         (None, 4096)              0         
_________________________________________________________________
dense_13 (Dense)             (None, 10)                40970     
=================================================================
Total params: 66,298
Trainable params: 66,074
Non-trainable params: 224
_________________________________________________________________
_________________________________________________________________
Layer (type)                 Output Shape              Param #   
=================================================================
conv2d_40 (Conv2D)           (None, 128, 128, 64)      1792      
_________________________________________________________________
batch_normalization_40 (Batc (None, 128, 128, 64)      256       
_________________________________________________________________
max_pooling2d_40 (MaxPooling (None, 64, 64, 64)        0         
_________________________________________________________________
conv2d_41 (Conv2D)           (None, 64, 64, 32)        18464     
_________________________________________________________________
batch_normalization_41 (Batc (None, 64, 64, 32)        128       
_________________________________________________________________
max_pooling2d_41 (MaxPooling (None, 32, 32, 32)        0         
_________________________________________________________________full dataset of shape: (3883, 128, 128, 3)
full labels of shape: (3883,)
X_data of shape: (3883, 128, 128, 3)
Y_data of shape: (3883,)
X_train of shape: (2484, 128, 128, 3)
y_train of shape: (2484,)
X_val of shape: (622, 128, 128, 3)
y_val of shape: (622,)
X_test of shape: (777, 128, 128, 3)
y_test of shape: (777,)
X_train of shape: (2484, 49152)
…
