…
X_val of shape: (622, 49152)
X_test of shape: (777, 49152)
[198.83132045 202.62238325 205.87318841 200.16706924 203.98389694
 207.23752013 201.26610306 205.11030596 208.4468599  201.50241546]
X_train of shape: (2484, 49152)
X_val of shape: (622, 49152)
X_test of shape: (777, 49152)
X_train of shape: (2484, 128, 128, 3)
X_val of shape: (622, 128, 128, 3)
X_test of shape: (777, 128, 128, 3)
_________________________________________________________________
Layer (type)                 Output Shape              Param #   
=================================================================
conv2d_1 (Conv2D)            (None, 128, 128, 64)      1792      
_________________________________________________________________
batch_normalization_1 (Batch (None, 128, 128, 64)      256       
_________________________________________________________________
max_pooling2d_1 (MaxPooling2 (None, 64, 64, 64)        0         
_________________________________________________________________
conv2d_2 (Conv2D)            (None, 64, 64, 32)        18464     
_________________________________________________________________
batch_normalization_2 (Batch (None, 64, 64, 32)        128       
_________________________________________________________________
max_pooling2d_2 (MaxPooling2 (None, 32, 32, 32)        0         
_________________________________________________________________
conv2d_3 (Conv2D)            (None, 32, 32, 16)        4624      
_________________________________________________________________
batch_normalization_3 (Batch (None, 32, 32, 16)        64        
_________________________________________________________________
max_pooling2d_3 (MaxPooling2 (None, 16, 16, 16)        0         
_________________________________________________________________
flatten_1 (Flatten)          (None, 4096)              0         
_________________________________________________________________
dense_1 (Dense)              (None, 6)                 24582     
=================================================================
Total params: 49,910
Trainable params: 49,686
Non-trainable params: 224
_________________________________________________________________
Start learning with best params at 2019-01-03 13:53:09.602109
Train on 2484 samples, validate on 622 samples
Epoch 1/10

  64/2484 [..............................] - ETA: 4:04 - loss: 4.7560 - acc: 0.0938
…
