…
X_val of shape: (728, 49152)
X_test of shape: (910, 49152)
[187.0849381  190.80914718 194.27063274 188.85350757 192.59731774
 196.07255846 189.66093535 193.36176066 196.85591472 190.05570839]
X_train of shape: (2908, 49152)
X_val of shape: (728, 49152)
X_test of shape: (910, 49152)
X_train of shape: (2908, 128, 128, 3)
X_val of shape: (728, 128, 128, 3)
X_test of shape: (910, 128, 128, 3)
_________________________________________________________________
Layer (type)                 Output Shape              Param #   
=================================================================
conv2d_1 (Conv2D)            (None, 128, 128, 32)      896       
_________________________________________________________________
batch_normalization_1 (Batch (None, 128, 128, 32)      128       
_________________________________________________________________
max_pooling2d_1 (MaxPooling2 (None, 64, 64, 32)        0         
_________________________________________________________________
dropout_1 (Dropout)          (None, 64, 64, 32)        0         
_________________________________________________________________
conv2d_2 (Conv2D)            (None, 64, 64, 16)        4624      
_________________________________________________________________
batch_normalization_2 (Batch (None, 64, 64, 16)        64        
_________________________________________________________________
max_pooling2d_2 (MaxPooling2 (None, 32, 32, 16)        0         
_________________________________________________________________
dense_1 (Dense)              (None, 32, 32, 1024)      17408     
_________________________________________________________________
dropout_2 (Dropout)          (None, 32, 32, 1024)      0         
_________________________________________________________________
flatten_1 (Flatten)          (None, 1048576)           0         
_________________________________________________________________
dense_2 (Dense)              (None, 2)                 2097154   
=================================================================
Total params: 2,120,274
Trainable params: 2,120,178
Non-trainable params: 96
_________________________________________________________________
Start learning with best params at 2019-01-05 21:01:43.559928
[0 0 1 ... 0 0 1]
full dataset of shape: (4546, 128, 128, 3)
full labels of shape: (4546,)
X_data of shape: (4546, 128, 128, 3)
…
X_val of shape: (728, 49152)
X_test of shape: (910, 49152)
[187.0849381  190.80914718 194.27063274 188.85350757 192.59731774
 196.07255846 189.66093535 193.36176066 196.85591472 190.05570839]
X_train of shape: (2908, 49152)
X_val of shape: (728, 49152)
X_test of shape: (910, 49152)
X_train of shape: (2908, 128, 128, 3)
X_val of shape: (728, 128, 128, 3)
X_test of shape: (910, 128, 128, 3)
_________________________________________________________________
Layer (type)                 Output Shape              Param #   
=================================================================
conv2d_1 (Conv2D)            (None, 128, 128, 32)      896       
_________________________________________________________________
batch_normalization_1 (Batch (None, 128, 128, 32)      128       
_________________________________________________________________
max_pooling2d_1 (MaxPooling2 (None, 64, 64, 32)        0         
_________________________________________________________________
dropout_1 (Dropout)          (None, 64, 64, 32)        0         
_________________________________________________________________
conv2d_2 (Conv2D)            (None, 64, 64, 16)        4624      
_________________________________________________________________
batch_normalization_2 (Batch (None, 64, 64, 16)        64        
_________________________________________________________________
max_pooling2d_2 (MaxPooling2 (None, 32, 32, 16)        0         
_________________________________________________________________
dropout_2 (Dropout)          (None, 32, 32, 16)        0         
_________________________________________________________________
flatten_1 (Flatten)          (None, 16384)             0         
_________________________________________________________________
dense_1 (Dense)              (None, 2)                 32770     
=================================================================
Total params: 38,482
Trainable params: 38,386
Non-trainable params: 96
_________________________________________________________________
Start learning with best params at 2019-01-05 21:03:55.036283
Train on 2908 samples, validate on 728 samples
Epoch 1/5

  64/2908 [..............................] - ETA: 2:27 - loss: 1.0246 - acc: 0.5781
…
