…
X_val of shape: (728, 49152)
X_test of shape: (910, 49152)
[187.0849381  190.80914718 194.27063274 188.85350757 192.59731774
 196.07255846 189.66093535 193.36176066 196.85591472 190.05570839]
X_train of shape: (2908, 49152)
X_val of shape: (728, 49152)
X_test of shape: (910, 49152)
X_train of shape: (2908, 128, 128, 3)
X_val of shape: (728, 128, 128, 3)
X_test of shape: (910, 128, 128, 3)
_________________________________________________________________
Layer (type)                 Output Shape              Param #
=================================================================
conv2d_1 (Conv2D)            (None, 128, 128, 64)      1792
_________________________________________________________________
batch_normalization_1 (Batch (None, 128, 128, 64)      256
_________________________________________________________________
max_pooling2d_1 (MaxPooling2 (None, 64, 64, 64)        0
_________________________________________________________________
dropout_1 (Dropout)          (None, 64, 64, 64)        0
_________________________________________________________________
conv2d_2 (Conv2D)            (None, 64, 64, 32)        18464
_________________________________________________________________
batch_normalization_2 (Batch (None, 64, 64, 32)        128
_________________________________________________________________
max_pooling2d_2 (MaxPooling2 (None, 32, 32, 32)        0
_________________________________________________________________
dropout_2 (Dropout)          (None, 32, 32, 32)        0
_________________________________________________________________
flatten_1 (Flatten)          (None, 32768)             0
_________________________________________________________________
dense_1 (Dense)              (None, 2)                 65538
=================================================================
Total params: 86,178
Trainable params: 85,986
Non-trainable params: 192
_________________________________________________________________
Start learning with best params at 2019-01-05 18:38:56.917623
Train on 2908 samples, validate on 728 samples
Epoch 1/15

  64/2908 [..............................] - ETA: 4:45 - loss: 1.5466 - acc: 0.4844
…
